model/model.pt (torch_old, 210751 bytes, 43 tensors)

Embedding.weight f4 [21, 50]
000000 00 00 00 00 00 00 00 00 00 00 00 00 00 00 00 00
       0.0 0.0 0.0 0.0
000010 00 00 00 00 00 00 00 00 00 00 00 00 00 00 00 00
       0.0 0.0 0.0 0.0
000020 00 00 00 00 00 00 00 00 00 00 00 00 00 00 00 00
       0.0 0.0 0.0 0.0
000030 00 00 00 00 00 00 00 00 00 00 00 00 00 00 00 00
       0.0 0.0 0.0 0.0
000040 00 00 00 00 00 00 00 00 00 00 00 00 00 00 00 00
       0.0 0.0 0.0 0.0
000050 00 00 00 00 00 00 00 00 00 00 00 00 00 00 00 00
       0.0 0.0 0.0 0.0
000060 00 00 00 00 00 00 00 00 00 00 00 00 00 00 00 00
       0.0 0.0 0.0 0.0
000070 00 00 00 00 00 00 00 00 00 00 00 00 00 00 00 00
       0.0 0.0 0.0 0.0
000080 00 00 00 00 00 00 00 00 00 00 00 00 00 00 00 00
       0.0 0.0 0.0 0.0
000090 00 00 00 00 00 00 00 00 00 00 00 00 00 00 00 00
       0.0 0.0 0.0 0.0
0000a0 00 00 00 00 00 00 00 00 00 00 00 00 00 00 00 00
       0.0 0.0 0.0 0.0
0000b0 00 00 00 00 00 00 00 00 00 00 00 00 00 00 00 00
       0.0 0.0 0.0 0.0
0000c0 00 00 00 00 00 00 00 00 f1 ee 84 3f 0a 7f de 3f
       0.0 0.0 1.0385419 1.7382519
0000d0 7c 1b 6b 3d 81 37 a1 3e 12 e8 80 3f a9 94 97 3f
       0.057399258 0.3148766 1.0070822 1.1842242
0000e0 7b 13 d0 be ae ee 1f bf 58 b8 f6 3f d3 84 a9 3f
       -0.40639862 -0.6247357 1.9275007 1.324366
0000f0 50 b1 de 3d 06 47 dd 3e 9e de bd 3f 88 8b 75 bf
       0.108736634 0.4321825 1.4833562 -0.9591603
000100 a9 13 1e 3c de 91 2a bf ac 7c 02 3f 45 07 de be
       0.009648242 -0.66628826 0.50971484 -0.4336492
000110 bb ef 9a bf 29 1c 80 3e 4d e2 12 bf e6 ba a6 3f
       -1.210441 0.25021484 -0.5737656 1.3025787
000120 4d 4a 54 3f 5b 70 72 3e fe 25 06 be 68 75 f8 bf
       0.82925874 0.23675673 -0.1310043 -1.941083
000130 ff 0d d5 3f c6 48 45 3f bd 1d 0f 3f 03 22 04 c0
       1.6644896 0.7706417 0.5590475 -2.064576
000140 e1 13 a4 be ad 8b ab 3e e7 b0 30 40 5d 2c 0c ba
       -0.32046416 0.33505002 2.7607973 -0.0005347187
000150 ed a6 18 3f b0 6c d5 bf c2 f5 80 bf 15 84 b1 3f
       0.5962971 -1.6673794 -1.0074999 1.3868433
000160 01 55 b0 3e f8 58 96 3e 07 02 71 bf 59 0c 8f 3f
       0.34439853 0.29364753 -0.9414372 1.1175643
000170 c5 1c b5 be cc e8 17 3d 18 7c d1 3f 5c b4 b7 3f
       -0.35373512 0.037087247 1.6365995 1.4351916
000180 f7 c5 29 3e 57 8c db 3e 46 8a de bd c6 cf a2 3e
       0.16579424 0.42880508 -0.10866217 0.31799144
000190 0b 8b d4 3f 12 5d 5e bf 03 23 bc bf 05 41 cf bf
       1.6604933 -0.86860764 -1.4698185 -1.6191717
0001a0 4e ef ca bf 03 18 a0 3e 99 67 32 ba ca 13 57 3f
       -1.585428 0.3126832 -0.00068055984 0.8401457
0001b0 b2 79 31 3e e7 75 5b bf b3 5f 19 bf ac 5f 70 bd
       0.1733158 -0.8572678 -0.5991165 -0.05868499
0001c0 e8 06 15 bf 15 df 6f be de 4c f8 3e e2 41 97 be
       -0.58213663 -0.23424943 0.48496145 -0.29542452
0001d0 42 35 94 3d 9f f7 1d c0 df b4 05 bf 05 14 ac be
       0.072367206 -2.4682386 -0.5222911 -0.33609024
0001e0 ed 9d 11 40 af 95 0e 3f 00 73 5e be 2a e1 50 3c
       2.275264 0.5569715 -0.21723557 0.012748996
0001f0 90 fb e3 3f 6f 06 7e 3f d8 52 b1 3e 9b d6 41 bf
       1.7811146 0.99228567 0.34633517 -0.75718087
000200 25 78 7d 3f b1 17 00 3f 47 ea dd bf d5 cb 1a 3f
       0.9901145 0.5003615 -1.7337121 0.60467273
000210 ab f7 04 40 7b ab ac 3f 3a 49 17 be a3 91 62 3e
       2.0776165 1.3489832 -0.14774027 0.22125868
000220 d5 b0 8c 3e 59 6b 2f 3f 3c fe 25 bf c4 46 f3 3d
       0.27478662 0.68523175 -0.64841056 0.11878732
000230 7d 4f 1e bf dc ce 61 bf 59 fc 6c bf 63 7e a3 3e
       -0.6184004 -0.8820627 -0.9257255 0.31932363
000240 54 f5 1c 3f 39 95 d8 3d ec ec 04 c0 e7 9a ff 3f
       0.6131184 0.10575337 -2.0769606 1.9969147
000250 b0 c3 99 bd 54 cf d6 3f 26 d2 38 3e 06 b7 bc 3e
       -0.075080276 1.6782022 0.18048915 0.36858386
000260 21 35 20 c0 e6 fc 0e bf c1 e3 26 bf 5d 6c e1 3c
       -2.5032427 -0.5585464 -0.65191275 0.027517492
000270 95 21 70 3f 9d 69 31 3f 17 21 89 bf 6a b1 6a 3f
       0.9380124 0.6930178 -1.0713223 0.9167696
000280 c2 b7 c9 bf ce c1 b6 be e3 25 f1 3d a9 fe 4d 3f
       -1.5759203 -0.35694736 0.117748044 0.80466706
000290 85 ca 42 3f a7 45 28 3f 2f 58 f6 bf fd 2f 9a 3e
       0.7609027 0.6573128 -1.9245661 0.30114737
0002a0 37 f7 22 3f d9 02 63 3f 75 6b 1e be ac 8f 01 be
       0.6365847 0.8867622 -0.15470679 -0.12652463
0002b0 fe 70 49 3f ed 54 0d be 4d 86 b4 be 17 d8 e9 3f
       0.7868804 -0.13801928 -0.35258713 1.826907
0002c0 69 0b e2 3f c9 94 d4 bf 4a b4 80 3f db 2c cf 3f
       1.7659732 -1.6607906 1.005502 1.6185564
0002d0 61 79 3a bf 17 bf f3 bf ff f5 ad be db 8f eb bf
       -0.7284146 -1.9042691 -0.33976743 -1.8403276
0002e0 61 fa 0c 3f 5f f6 de 3f f2 f3 47 be be bb 94 bf
       0.5506955 1.7418936 -0.19526652 -1.1619794
0002f0 51 e4 d2 3d 60 ba ac 3e fc 18 32 bf 7f aa c4 3e
       0.10297454 0.33735943 -0.69569373 0.38411328
000300 fc ff 83 be 5f ff d1 be 15 aa 27 3e 78 c9 56 3e
       -0.25781238 -0.41015145 0.16373475 0.20975292
000310 8b 52 82 3e 5a 1f 1e be 2a e4 f8 3e cb 65 70 be
       0.254536 -0.15441647 0.48611575 -0.23476331
000320 b8 2b c8 3e dc 07 92 3e 38 06 93 3f 6e cf e5 3e
       0.39095855 0.2852162 1.1486273 0.4488482
000330 e5 e4 0f bd a2 64 2b c0 6f 78 8a 3f 26 84 e8 bf
       -0.0351304 -2.6780171 1.0818003 -1.8165329
000340 21 29 3c be a1 e5 86 3f 0b f8 22 3f 2a a3 f8 3e
       -0.18375064 1.0538827 0.63659734 0.48561984
000350 0e 1e f6 be 4d fa ba be 32 28 fa bf 56 3f 66 bf
       -0.48069805 -0.3651909 -1.9543517 -0.8994039
000360 c3 11 d7 3f 7b e2 48 bf 73 a1 43 be 79 b8 4d bf
       1.6802295 -0.7847058 -0.19104557 -0.8035961
000370 f8 9a e3 be 2d d4 da bf c6 9a 12 40 ab 3a c2 be
       -0.4445417 -1.7096001 2.2906966 -0.37935385
000380 37 21 49 3f b8 e4 96 bf fe a9 02 3d 7d a8 e4 3e
       0.78566307 -1.178855 0.0319004 0.44659796
000390 ff 38 e7 3e f5 90 40 be a0 c6 e8 bf 33 69 06 bf
       0.45160672 -0.18805297 -1.8185616 -0.5250427
0003a0 59 05 08 bf f8 8f 4d be ec 1d 7b bf 69 d1 e2 3e
       -0.5313316 -0.20074451 -0.9809253 0.44300392
0003b0 65 fb 9d bf 70 ee c3 3d 5f 75 1e 3f a3 a9 4b bc
       -1.2342345 0.09566963 0.61897844 -0.012430581
0003c0 34 42 e5 bc de 35 44 3d ec cb 24 bf 5d f6 44 3f
       -0.02798567 0.047902934 -0.6437366 0.7693842
0003d0 5c 0d 3d 3f e3 4d 72 3f 41 32 32 3f 1d 8a 51 be
       0.7384851 0.94650096 0.6960793 -0.20462842
0003e0 ca 64 ec 3e a9 cb 84 3f e0 0d 79 bf 3b 59 08 c0
       0.46170646 1.0374652 -0.97286797 -2.1304462
0003f0 77 90 97 3e 9d 6a 0a bf 9e 06 6f bf 95 eb 1c be
       0.29602405 -0.5406893 -0.9336947 -0.15324242

convPool1.0.weight f4 [30, 50, 2]
000000 c5 90 25 bd 2e 51 16 3d b9 f6 f2 bc 8f cf 97 3d
       -0.040421266 0.036698513 -0.029658662 0.074126355
000010 2f 6f 46 bd c1 72 d5 3d a4 f4 3e 3d 10 ae 92 3c
       -0.048445877 0.10422278 0.046620026 0.017905265
000020 f0 6a 5f bd 5c db cc 3d 55 23 19 bd a5 de 43 bc
       -0.054545343 0.10002777 -0.03738721 -0.011954938
000030 54 8e c3 bc e4 b8 9f 3d 2b f1 4a bd 20 47 25 3e
       -0.023871578 0.07798937 -0.049546402 0.16140413
000040 8a 30 7b 3c 3b c3 43 3d cb 3f b4 bc 65 79 36 ba
       0.015331397 0.04779361 -0.022003075 -0.0006960838
000050 0d cd 3c bd 27 60 63 bc 64 c7 06 bd cb 81 e9 3b
       -0.04609399 -0.013877905 -0.032904997 0.007126068
000060 e2 f2 79 bd 18 5d 5e 3d ba c8 1d 3d af 0a 06 3e
       -0.061022647 0.054288 0.038521506 0.13090013
000070 c9 4e 07 3d 0f cf 84 bc 7d 7a 2b 3b 72 6e cf bd
       0.03303412 -0.016212014 0.0026165538 -0.10128488
000080 77 6d 23 bd 72 e0 6f 3d 85 8e 97 3b e2 7c 85 3d
       -0.039899316 0.058563657 0.004625144 0.0651796
000090 98 67 27 3d 21 00 43 bd bb 32 5f bd 92 5b 8e bd
       0.04087028 -0.047607545 -0.05449174 -0.069510594
0000a0 62 6b c7 bd 77 ec f4 3d 14 56 ed 3c 1d 00 f4 bd
       -0.097372785 0.119591646 0.02897171 -0.11914084
0000b0 9b f7 84 3d 83 c3 fb bd 22 9a 91 bc 03 4e f5 bc
       0.064925395 -0.1229315 -0.017773692 -0.029944425
0000c0 77 2b ec 3c 9f 5f 8d 3d 67 0b f9 3c 6f d8 3a 3d
       0.02882932 0.06903004 0.030400945 0.045616563
0000d0 85 ad 46 3d 2d ef 98 3c 05 5d 08 3d cc 1d 02 3e
       0.048505325 0.018668735 0.033291835 0.12706679
0000e0 7d 3f 79 bc bb 27 ef bd e9 16 ad 3d d9 93 5d 3c
       -0.015212891 -0.116775 0.084516354 0.013524019
0000f0 af 67 19 3e 62 8f bc 3d 56 2c c8 bd 7d a8 97 3b
       0.14980958 0.092070356 -0.097740814 0.0046282397
000100 c3 c5 e1 bd 74 72 ed 3c 7e ad cc 3c 43 d6 d1 bc
       -0.11024048 0.02898524 0.024985071 -0.025614863
000110 b4 61 c0 3d c1 dc d2 bd 0b 19 83 3d c9 9e 46 bd
       0.093936354 -0.10296012 0.06401261 -0.048491273
000120 6b 06 46 bd a8 e6 c4 3d 86 6e c9 bb 83 f6 f6 3c
       -0.048345964 0.09614307 -0.0061472086 0.030146843
000130 38 4f 0e be 32 26 cb bd ef 1b 7f bd 3f 72 98 3d
       -0.13897407 -0.099193946 -0.0622825 0.07443666
000140 29 50 8e 3d 78 7f bc 3d 8b bc 2c 3d 55 bc 64 3d
       0.06948883 0.09204 0.042171996 0.05584367
000150 fe b5 84 3d b3 da 67 3d ff 7d 8c 3c 6e 68 fc bd
       0.06480025 0.056605052 0.017149923 -0.12324606
000160 4a 48 01 be 33 97 cb 3c ac 8b 78 3d fd 93 26 be
       -0.12625232 0.02485237 0.060680076 -0.1626739
000170 39 27 40 3d 77 88 6a bc 7f ea 09 3d 26 d0 24 3e
       0.046912406 -0.014314762 0.0336709 0.16095027
000180 25 d4 00 bc 60 a1 d5 3d 35 db 0d 3c e5 43 73 3d
       -0.007863079 0.104311705 0.00865822 0.05939092
000190 b9 f9 32 bd 06 a0 2c bb 95 d7 a1 bb 6d 0e bb 3d
       -0.043695185 -0.0026340499 -0.0049390295 0.09133611
0001a0 4d 6e 6e bd 6f 86 62 3c b7 bb 6a 3d 2e 14 15 3d
       -0.05821066 0.013825997 0.057307925 0.036396198
0001b0 81 62 44 3d 4e 9a b0 bc 10 3e d6 bd ba 09 c4 bd
       0.047945503 -0.021557953 -0.10461056 -0.09572168
0001c0 ca 6c d4 bd bf 20 8b 3c 49 35 b1 bd a0 b8 e7 bd
       -0.10372312 0.016983388 -0.086527415 -0.11314511
0001d0 03 4e 02 3e 0d b5 8a 3c 06 16 c6 3b 25 9d c8 3c
       0.12725072 0.016932035 0.006045106 0.024488995
0001e0 9c e3 0a b9 62 05 c4 bd b8 70 76 3b 9c 6b d1 bd
       -0.00013245497 -0.09571339 0.0037603807 -0.10225603
0001f0 2e ad 21 bd 75 41 03 be 9c a9 41 bc ca 10 20 bd
       -0.039471798 -0.12817939 -0.011820223 -0.03907851
000200 d4 9f 55 bd e6 1f 02 3e 51 86 33 bd 3e 03 85 bd
       -0.052154377 0.12707481 -0.043829266 -0.06494759
000210 79 d3 a1 bd 82 ec 47 3d bf 2c 71 3d 34 31 e7 bc
       -0.07901663 0.048809536 0.058880564 -0.028221704
000220 e6 2e 86 3c 16 08 f8 3c 5a 7c 22 3d 3c e7 f5 3d
       0.016379785 0.030277293 0.039669372 0.12006995
000230 23 f6 30 bc af 35 90 3d 00 42 7a 3d b7 82 96 bd
       -0.010800871 0.07041489 0.0610981 -0.07349151
000240 a5 92 ce bd 96 9e 71 bc ac fe 9e bd be 2d 80 3d
       -0.10086564 -0.0147472825 -0.077634186 0.06258725
000250 08 fb 0c bd 14 13 b9 3d 4e f8 28 3c e5 80 90 3d
       -0.03441909 0.09036842 0.010313107 0.07055835
000260 35 7c 3a bd f7 0f 0e bd c4 45 22 bc 90 2e c0 3d
       -0.04552861 -0.034683194 -0.009904329 0.09383881
000270 e0 47 89 bb 49 bf 84 bc f8 ea 0d be 75 6f 79 bd
       -0.0041894764 -0.016204493 -0.13859165 -0.06089731
000280 44 66 92 bd b3 53 e4 3d 9c d7 61 3d 3a ca 0d bd
       -0.07148412 0.11148777 0.05513726 -0.034616686
000290 f0 52 d8 bc c9 39 a9 bd c8 8e b2 3d df 6b 11 be
       -0.026406735 -0.08262975 0.087186396 -0.14201306
0002a0 77 53 1c 3e cf e2 48 bd 30 84 bd 3d cc 3c 5e bc
       0.15266214 -0.049044427 0.092537284 -0.0135643
0002b0 a9 96 bf 3d 62 62 bd bd b0 ea 76 3c 22 44 db 3a
       0.09354908 -0.09247281 0.015070602 0.0016728679
0002c0 39 79 c8 3d 34 0c 63 3d 29 e6 66 3d c7 b1 b7 bd
       0.097887464 0.05543156 0.05637184 -0.08969455
0002d0 e0 af 01 3d 98 c9 aa 3c a7 f0 bb b9 4b 14 c2 3d
       0.031661868 0.02084808 -0.0003584672 0.09476527
0002e0 1a c3 20 3d c3 6b 06 be 7c 11 00 3d cd ed 84 be
       0.039248563 -0.13127045 0.031266674 -0.25962678
0002f0 91 af 91 3d 17 f5 53 bd 2e 7b 77 bd cb 34 98 3d
       0.07113565 -0.051747408 -0.060420208 0.074319445
000300 c1 cf 9e 3d 6f 09 15 3d 9b 6c bb bd cb d6 85 3c
       0.0775447 0.03638595 -0.09151574 0.016337773
000310 b7 46 51 3d 63 18 84 bd 8f cf 85 3d 84 f4 92 3c
       0.05109283 -0.06449964 0.06533729 0.01793886
000320 d7 4e 07 bd d9 08 fa bc 16 3c 2c 3d 46 59 19 be
       -0.033034172 -0.030521797 0.04204949 -0.14975461
000330 cd 94 f2 bd 19 c8 0a 3c c8 68 28 3d d0 13 17 bd
       -0.11844788 0.008470559 0.041115552 -0.03688413
000340 88 ea 42 3d 51 06 60 bc 9d 8b 06 3e 32 27 0e bd
       0.047586948 -0.013673381 0.13139196 -0.03470535
000350 ae 44 a0 3d d1 6f 2c 3e 12 db 5d 3d 14 b9 ed bd
       0.078255996 0.1683953 0.054164 -0.116075665
000360 bd 16 8f 3d 24 5c 08 be 61 3d ae 3d ca 5e 54 bd
       0.06986759 -0.13316399 0.08507801 -0.05184821
000370 66 42 e4 3a 5c d3 21 bd 2c 75 ee 3d 2c 44 f8 bd
       0.0017414808 -0.03950821 0.116434425 -0.12122378
000380 65 8d cd 3c 74 f8 8e bc e6 24 67 3c d8 05 70 3d
       0.025091836 -0.017452456 0.014107918 0.058599323
000390 f4 97 2c 3c 7b 45 92 3d f3 19 8d bd 3a 6a 07 3c
       0.010534275 0.071421586 -0.06889715 0.0082650725
0003a0 e1 df 40 3c ca 23 9d 3d d1 ed 8e bb b4 e0 91 bd
       0.011772127 0.07672842 -0.004361846 -0.07122937
0003b0 79 ac 95 3b 51 07 95 3d 50 3e 8a 3d 58 1f 82 3d
       0.0045676795 0.07276786 0.067501664 0.063536346
0003c0 f9 cc c6 bd 8b dd aa 3c 9b 1d 22 3c 7a ac fc bd
       -0.09707064 0.020857593 0.009894754 -0.12337585
0003d0 92 a1 e9 3d da bc 06 3d 1e 69 b4 3c bd a6 c3 bd
       0.1140777 0.032894947 0.02202278 -0.09553287
0003e0 4a 98 29 3d a2 af 15 3e 5d 02 1a ba 12 37 ad 3d
       0.041405 0.1461778 -0.0005874986 0.084577695
0003f0 ff e6 0d bd a4 7e cc 3b 6a ea c8 bc e9 5a 2c bd
       -0.034644123 0.0062406827 -0.02452584 -0.042078886

convPool1.0.bias f4 [30]
000000 0d 21 8c 3d d4 da b0 bd 5a 7e bb bd fe 84 c0 bd
       0.068422414 -0.08635488 -0.09154959 -0.09400366
000010 5d 58 43 bd 74 60 2e 3d 61 0d bc bd 9f af f0 bd
       -0.04769169 0.042572454 -0.09182239 -0.11752247
000020 28 46 d7 bd 53 ca a6 3c 52 c7 d2 38 2b fe d4 3d
       -0.10511428 0.020360148 0.000100507066 0.10400041
000030 ab 0e bc 3b 92 a2 97 3c 39 83 28 bd 68 de 5d bb
       0.0057390532 0.018510137 -0.04114077 -0.0033854488
000040 b7 a0 bf bd cd 97 74 3c b5 1e 3e 3c 4a e9 59 bd
       -0.09356826 0.01492877 0.011604001 -0.053200997
000050 9e 36 c1 3d 87 bd 46 3c c6 0f 11 bd 9f df 75 3d
       0.094342455 0.012130148 -0.035415433 0.060027715
000060 8d 3d 75 3d 5c e1 3f bd 54 35 e1 bd a2 59 0e bd
       0.059873153 -0.04684578 -0.109965 -0.03475345
000070 64 c4 fb 3c c9 4c 2c bd
       0.030733295 -0.042065416

convPool1_.0.weight f4 [30, 50, 2]
000000 d4 de 78 3d 83 e0 b5 3c 15 f7 c7 3d 3e e7 02 3e
       0.06075938 0.022201782 0.09763924 0.12783524
000010 d1 e3 a9 bd 83 e3 0b be 7a 8e b1 3d c3 9a 8b 37
       -0.08295406 -0.13661008 0.086697534 1.6642158e-05
000020 35 ef ac 3d d2 c9 86 bd f5 0e 8e 3c 37 90 81 3c
       0.084440626 -0.06581463 0.017341116 0.015815837
000030 dc 90 c8 bd e6 d4 89 bd b6 8e b2 bd 74 d3 e1 3c
       -0.09793255 -0.0673006 -0.08718626 0.027566649
000040 35 e6 c1 3d 2b c0 89 bd 5d b3 11 3e ec 18 da 3d
       0.09467737 -0.06726106 0.14228578 0.10649285
000050 7e f8 66 3c eb 1b 99 bd ac 43 92 3b 42 b2 7a 3b
       0.014097331 -0.07476028 0.0044636335 0.0038253223
000060 45 d4 3e bc 1a bb 86 3d 47 4b 7f bc a0 4a 30 3d
       -0.011647289 0.065786555 -0.015581912 0.043039918
000070 ce 8f d9 bc ed 9f c4 3d 19 bc 76 bd cd ea db 39
       -0.02655783 0.09600816 -0.060237978 0.00041945875
000080 a0 48 80 bd d5 12 a2 bd a3 b2 6c bd b3 c8 cd 3c
       -0.06263852 -0.07913748 -0.05778755 0.025120115
000090 9d e8 58 3d af 16 9f bd df c4 62 3d 15 92 aa b9
       0.052956212 -0.077679984 0.055363532 -0.00032533766
0000a0 31 f3 26 bd bf f6 47 3d 8f 5f 80 3d a9 3e 9b 3d
       -0.04075927 0.0488193 0.06268226 0.07580311
0000b0 17 a8 e5 3d c6 e9 fa 3d 9c 87 ff 3a 94 ba a3 bd
       0.11213701 0.1225162 0.0019495371 -0.07994571
0000c0 09 06 69 3d 24 39 93 3b 41 4f bf bd fe cf 92 3c
       0.05689052 0.0044928957 -0.09341288 0.017921444
0000d0 f7 66 a7 3d a0 d9 b0 3d 92 26 86 bd 34 24 7c 3d
       0.08173936 0.08635259 -0.065503255 0.061557963
0000e0 2f bc 9a 3d 7a a7 28 bd ad 29 c6 3c ca 8d 0b bc
       0.075554244 -0.041175343 0.024189794 -0.008517692
0000f0 d1 16 cc 3c 0c 2f 4c 3d be 1a 20 3e ee 30 96 3d
       0.024913223 0.049849555 0.15635201 0.07333551
000100 76 a2 c8 3c 9c 51 fa 3d f1 f3 9a bc 56 f8 fe bd
       0.02449153 0.12222597 -0.018915148 -0.1244971
000110 20 9f b3 3d 0e ce 49 3d a8 c6 5e bd ad 7b 4d bd
       0.08770585 0.049268775 -0.054388672 -0.050166775
000120 bc 08 d2 bc a2 fb cf bd 13 4c 21 3b e4 75 13 3d
       -0.02563893 -0.10155417 0.0024611994 0.0360011
000130 61 e1 c5 bd f0 c4 95 3d 3f 85 e9 3d 7c c0 95 bd
       -0.09662128 0.073129535 0.11402368 -0.07312104
000140 85 d6 de 3c 43 3a 86 bc 9e 96 0f bd bf db 4f 3c
       0.0272019 -0.016385203 -0.03505575 0.012686669
000150 df a9 db bc 74 eb 56 bd f7 56 d5 3d ed e0 8b bd
       -0.0268144 -0.05247064 0.10416978 -0.068300106
000160 4c 87 fa bc f1 60 7f bd 4e a2 12 bd e6 50 eb 3b
       -0.030582093 -0.06234831 -0.035799317 0.0071812747
000170 31 9f 42 bd a5 86 c1 bc 7d d8 cb bc 91 66 2d 3d
       -0.047515098 -0.023623774 -0.024883503 0.042334143
000180 6d 81 eb 3d 60 83 a0 3b 73 27 84 3c 83 17 8f bd
       0.114992954 0.0048984736 0.016132092 -0.069869064
000190 df 04 83 3c 8e 4f db bd 4a b3 a9 3d 1e e2 8b 3c
       0.015993534 -0.10708533 0.0828615 0.017075595
0001a0 e3 25 ba 3d 96 ca 45 bd 27 e5 30 3d cb a7 11 bc
       0.090892576 -0.048288904 0.043187287 -0.008890103
0001b0 a6 db 3a bd fd c1 80 bd f1 a5 9b bd 86 78 dc bd
       -0.04561963 -0.06287 -0.0760001 -0.107651755
0001c0 b4 d4 c0 bd 25 ad 9e 3c 60 ac e7 bd e1 4f 1c 3d
       -0.0941557 0.019369671 -0.11312175 0.038162116
0001d0 d1 83 12 3e 6f 06 d2 bd f8 9a be 3c ba 5b ae bd
       0.14308096 -0.10255133 0.023267254 -0.08513589
0001e0 38 4e 3c bd ef 26 8e 3c 11 0c 03 3d da ce c2 bd
       -0.045973033 0.01735255 0.03199393 -0.0951211
0001f0 c1 aa e5 3c 77 8a 02 3e 28 a6 ab 3b 64 1f 20 3c
       0.028035523 0.12748133 0.005238313 0.009773109
000200 1a 25 f0 3d fd d1 6b bc 7a 65 31 3d fa 53 ac bd
       0.117258266 -0.014393327 0.043309666 -0.08414455
000210 f1 d9 e0 bd a7 c1 28 3a 20 50 2f bc ed 95 81 3c
       -0.10979069 0.0006437548 -0.010700256 0.01581856
000220 ec 63 31 3c 58 f6 64 39 ab b3 99 bc d2 83 d5 bd
       0.010827046 0.00021835545 -0.01876243 -0.10425533
000230 df c8 eb 3d 65 ee fe 3c d3 56 dd bd 56 73 27 3c
       0.115129225 0.031119535 -0.10807576 0.010220369
000240 fd 97 c0 3d 05 4f 2b 3d 3d e1 3b 3d 8b 83 94 3c
       0.094039895 0.041823406 0.0458691 0.01812913
000250 c8 87 f4 3c 83 3a c2 bd cf 2b 5f 3d ae f5 13 3c
       0.029849902 -0.094838165 0.05448514 0.009030743
000260 e0 a8 02 3d 13 2d bc bd 64 d5 39 3b 9d 2d ae 3d
       0.031899333 -0.09188285 0.002835595 0.08504794
000270 85 8e 23 3c 99 1a 9e 3d 8c 7b ae 3d 92 1a e9 3d
       0.00998271 0.07719917 0.085196584 0.11382021
000280 ce e4 aa 3d d3 b5 78 bd cc e6 f0 3c 4d e9 88 bd
       0.08344422 -0.060720276 0.029406928 -0.066851236
000290 5f 3a 9b 3d cd 4a 09 bd e1 9c a8 3d 19 2f 39 3d
       0.07579493 -0.0335186 0.08233047 0.04521093
0002a0 6d 2b e0 bd e4 78 4c bd a5 09 0a bd 2e ad 8f bd
       -0.10945783 -0.049919978 -0.033700604 -0.07015453
0002b0 9f b2 f2 3d 12 c9 99 bd 24 56 7e bd 00 d9 2b bc
       0.118504755 -0.07509054 -0.06209387 -0.010488749
0002c0 63 c8 32 bd d4 e1 51 bc 69 74 26 bb bc 82 23 bd
       -0.043648135 -0.012810189 -0.0025398976 -0.0399196
0002d0 94 eb d9 bb c9 db d9 3c b9 ce 39 bd 2e 4a c8 bd
       -0.0066503976 0.02659406 -0.04536316 -0.09779774
0002e0 da 67 2b bd a8 e4 b1 3c b5 74 33 3d ae 82 19 be
       -0.041847087 0.021715477 0.043812472 -0.14991257
0002f0 aa 5c 96 3c 09 c8 09 be f7 09 a8 3d c5 93 58 bd
       0.018354733 -0.13455214 0.08205026 -0.0528753
000300 fc 07 be 3d 4f 83 cc 3c 67 66 22 3d ca c6 a2 bd
       0.09278867 0.024964957 0.03964844 -0.07948072
000310 8b d4 02 3d a0 e5 06 3e 63 ce fb 3c 21 16 2b bc
       0.031940978 0.13173532 0.030738061 -0.010442288
000320 8e a3 86 bc 46 c7 e3 bc b8 e1 cb 3d 13 b3 7d 3d
       -0.01643541 -0.027804982 0.09955162 0.061938357
000330 67 73 06 3e 5e 45 69 bd 74 3f 63 bb 4c 6e 06 bd
       0.1312996 -0.05695092 -0.0034675272 -0.03282003
000340 92 f4 cf bd 2d 22 63 bd fb 3c 9a 3d e1 fd 03 be
       -0.1015407 -0.055452514 0.07531162 -0.12889816
000350 ec ff e2 3b 7b 62 8e bd 6c 83 9e 3d 25 90 4a ba
       0.006927481 -0.069523774 0.077399105 -0.00077271677
000360 39 9b 5b 3d f4 54 02 3d a4 31 d9 bd a3 64 0e 3e
       0.05361483 0.0318193 -0.10605171 0.13905577
000370 e7 da fc 3d 1e 11 08 3a 6e ea b5 bc 9e 32 f2 ba
       0.1234644 0.0005190539 -0.022206511 -0.001847822
000380 17 6c 48 bd d9 cd 68 3d c8 58 81 bc fc e1 78 bb
       -0.048931208 0.056836937 -0.015789405 -0.0037976494
000390 d6 2f 6f 3b 9a 4e b4 bd e4 e3 ed bd fa 1c 31 3d
       0.0036497018 -0.088040546 -0.11615732 0.043240525
0003a0 85 6d fb bb 85 f4 7c 3d 85 5f 3a 3e a1 f6 73 bd
       -0.007672968 0.06175663 0.182005 -0.059561376
0003b0 37 0d e4 3c 83 d2 7e bd e5 a8 ad bd 9d 40 7e bd
       0.027838333 -0.06221248 -0.0847948 -0.06207334
0003c0 1e bb f6 3d 8f 58 c6 bc ee 01 e8 3d 87 19 b8 3d
       0.120474085 -0.02421215 0.11328493 0.08989244
0003d0 15 09 4c 3d cc 50 66 bd cd 53 97 bc d4 08 7e 3c
       0.04981335 -0.056229398 -0.018472577 0.0155050345
0003e0 24 0c d9 3a 8c 2c d7 3c e1 ba 3c 3d 82 1b 28 3c
       0.0016559404 0.026266359 0.04607666 0.010260465
0003f0 23 5a 31 be 72 a0 88 3c 88 19 d6 bc ca eb b2 bd
       -0.1731954 0.016678069 -0.026135221 -0.087363794

convPool1_.0.bias f4 [30]
000000 3d 3d ce bd 41 0c e9 bd 00 cf a2 bb 16 df 3a bd
       -0.10070274 -0.1137929 -0.004968524 -0.045622908
000010 ef e2 ec bb 76 01 f7 3c 4e d6 87 bd ea a5 c6 bd
       -0.007229201 0.030152064 -0.06632672 -0.09699614
000020 5f 4d ad bc e2 ff 10 bc a4 ff 80 bd bc 49 94 bd
       -0.021155057 -0.00885007 -0.062987596 -0.07240626
000030 26 43 8d 3d 27 e4 ba 3c db aa e4 3c f9 31 6f bd
       0.06897573 0.02281387 0.027913501 -0.058397267
000040 05 0a c8 3d 3b ba 97 bd cc cc d6 3d a5 82 f2 3d
       0.09767536 -0.074085675 0.10488281 0.11841325
000050 61 2e a1 3d fa cb 80 bd 6a f1 5c 3d 2e 0c 86 3d
       0.07870174 -0.062889054 0.053941168 0.06545292
000060 08 dc b7 3d 7e f5 ab bd 35 96 8c 3a 65 03 2d 3d
       0.089775145 -0.08396433 0.0010725918 0.042239565
000070 e2 cb c1 bc 39 82 e4 3b
       -0.02365679 0.0069735316

convPool2.0.weight f4 [30, 30, 2]
000000 b5 31 1b 3d 45 92 e6 3d 37 0b 7b bd 3a 23 c4 bc
       0.0378892 0.112583674 -0.061289992 -0.023942579
000010 85 f5 ec 3d f2 7e 73 bc c6 7a cc bd 98 51 92 bd
       0.11570267 -0.014861809 -0.09984355 -0.07144469
000020 88 54 b1 3d 96 89 2f bd 06 95 ac bd f4 63 d3 3c
       0.08658701 -0.04285582 -0.084268615 0.025804497
000030 cc a4 6d bc c7 ab 16 bc fd c7 68 bd 3e 3c 48 3d
       -0.014504623 -0.009196228 -0.05683135 0.048885576
000040 a0 5b 0c 3e 3b c6 0f 3d 4a d7 ae bd 0c c7 17 3e
       0.13706827 0.035101157 -0.08537157 0.14822024
000050 9b 34 d4 3a 44 5b e1 bd 54 03 12 be f1 1d b0 3d
       0.0016189994 -0.11003736 -0.14259082 0.08599461
000060 d8 f5 8f 3d 35 b7 92 3d c0 43 c3 bd 1b 83 70 3d
       0.07029313 0.0716385 -0.09534407 0.058718782
000070 3e 47 55 3d cc 06 c1 3b 04 7c fc 3d d7 5a 2b 3e
       0.052069895 0.005890703 0.123283416 0.16733871
000080 e6 4b 05 be 9b a2 b5 bd 00 a6 8c 3d 44 f2 5b 3c
       -0.13017234 -0.08868905 0.068675995 0.01342446
000090 bf f4 ea bd 87 ac ae 3d a9 66 f5 3c f5 ea 31 3d
       -0.11472463 0.08529001 0.029956179 0.043436963
0000a0 27 41 a5 bd a5 bd cf bd b7 43 64 3c 18 8a 64 bd
       -0.080690674 -0.10143594 0.01393216 -0.05579576
0000b0 8e a4 7c 3d 14 1f f2 3d 38 4b 82 bc 0a 2c cb bd
       0.06168037 0.11822334 -0.015905008 -0.09920509
0000c0 58 d5 bb 3d 7e 00 42 3d be f7 f0 bd 57 47 25 bc
       0.091715515 0.04736375 -0.11766003 -0.0100878095
0000d0 10 ae c8 3d 83 93 00 3e dd fa e6 bd 4c 10 2b be
       0.09798825 0.12556271 -0.11278317 -0.16705436
0000e0 ff d4 e2 bd 55 09 33 bd 39 c7 05 bc 39 3a 4e bd
       -0.11075782 -0.04371007 -0.008165174 -0.050348494
0000f0 3d bc ac 3d 9e 21 8b bd 06 16 96 3d 27 4b 72 bd
       0.08434341 -0.06793521 0.073284194 -0.059153702
000100 16 f6 fe bd 1b 69 cc 3d f7 df 69 bd 4a 2a 3a be
       -0.12449281 0.09980985 -0.057098355 -0.18180194
000110 fe 49 c9 bd 57 22 11 3e 95 b3 1f 3e 25 48 a0 3d
       -0.09828566 0.14173256 0.15595849 0.078262605
000120 d6 8f 51 be 29 c5 cf bb 69 a6 04 be b6 6a 0a be
       -0.20465025 -0.006340642 -0.12954105 -0.1351727
000130 b1 f5 a3 3c 07 5c b1 bc 23 34 84 bd 65 36 c5 3d
       0.020014616 -0.021650327 -0.06455257 0.096295156
000140 1c df 0a 3d 7a 42 a3 bd b8 57 a2 3d ac 86 fe 3d
       0.03390418 -0.07971664 0.07926887 0.1242803
000150 ee 83 68 bd 15 e9 12 3c fa a5 91 bd 94 69 e8 3d
       -0.056766443 0.008966704 -0.07111736 0.113482624
000160 f2 7b 81 bd b9 fb 21 3d a6 ea d4 bd b6 c6 5e bd
       -0.06322469 0.039546702 -0.10396318 -0.054388724
000170 60 5d d8 3d f9 59 95 3d 3a 06 e3 bd a0 5b 8e bd
       0.10564685 0.072925515 -0.11085172 -0.0695107
000180 21 c5 17 bd af 29 da 3d 8e 13 2b 3b 0f be 23 bd
       -0.03705323 0.10652482 0.0026104185 -0.039976176
000190 af 69 02 3e 82 cd 1b 3d 89 a5 fc 3c 2e 9a d2 3d
       0.12735628 0.038037784 0.030840652 0.10283314
0001a0 25 ee 15 be d3 68 a3 bd bc cf 18 bc 29 2a dd bd
       -0.14641626 -0.07978978 -0.0093268715 -0.10799057
0001b0 54 6f b3 bd ea 04 4a 3d d6 98 6a be 05 17 06 bd
       -0.087614685 0.049321093 -0.22909865 -0.032736797
0001c0 d0 b7 1a 3d 6b a5 d7 bd 6c a6 bc bc be 93 52 be
       0.037772954 -0.10529598 -0.023028575 -0.20564172
0001d0 b2 2d 13 3e 07 64 11 3e 1e 4e 9b bc 63 d2 1b 3d
       0.143729 0.14198314 -0.018958148 0.038042437
0001e0 7c 6a dd b9 bc 2a d5 3d 70 81 d9 bd 5d b6 bf bd
       -0.00042231742 0.104085416 -0.10620391 -0.09360955
0001f0 30 50 f6 bd 63 0e f4 bc f5 eb c8 bd 31 f6 80 3d
       -0.12027013 -0.029792016 -0.0981063 0.06296957
000200 ee 51 12 3e 39 e1 cf bc f0 2f 06 ba 5a 6d 4a 3d
       0.14289066 -0.02537595 -0.00051188376 0.049420692
000210 18 7b 6a bd 01 4d b5 3d bd ce 41 bc 11 e8 42 be
       -0.057246298 0.08852578 -0.011829075 -0.19033839
000220 5a 71 9e bd 93 89 da 3d 77 93 41 bd a9 ed 75 3d
       -0.07736464 0.106707714 -0.047259774 0.060041104
000230 2a f6 09 be 1b 8f db 3c 98 6d de 3d ae 65 02 3e
       -0.1347281 0.026801636 0.10860747 0.127341
000240 a2 1f 62 bb d6 5c 0c 3d 50 de 26 3e d6 39 9a 3d
       -0.0034503718 0.034268223 0.16295743 0.075305626
000250 09 1a 43 bb 12 06 41 3d 0f eb 8e 3c a7 5f 09 bd
       -0.0029770157 0.04712493 0.017446069 -0.033538487
000260 3f 54 cc 3d 93 a2 8e 3d 0f 97 0c be 50 d4 02 bc
       0.09977006 0.06964602 -0.137295 -0.00798519
000270 7e 80 c6 bd 83 e7 9e 3d df 88 98 bd dc 9c ec 3d
       -0.09692477 0.07759001 -0.07447981 0.11553356
000280 67 a7 20 bd 9d 96 dc 3d b2 da 8a bd fe bf 17 3c
       -0.039222147 0.10770915 -0.06779994 0.009262083
000290 b3 b2 b9 bc 7e 84 87 3d d0 79 99 3d f2 93 be 3d
       -0.022668218 0.06617068 0.07493937 0.09305562
0002a0 eb 17 b2 bd 28 35 a0 bd 1a 05 86 3d f4 4a 5c bd
       -0.08695968 -0.07822639 0.06543942 -0.05378242
0002b0 8a fd a9 bc 9e de a6 3c a7 3e 15 3e 75 16 45 bd
       -0.02075078 0.020369824 0.14574681 -0.04811712
0002c0 5e e1 01 be 89 ed 19 bd d6 ab e8 3d 87 f0 f2 3d
       -0.12683627 -0.037580047 0.113609 0.11862283
0002d0 c3 ec d1 3c 82 b3 ab 3c a5 4c 9f bc bd b5 b3 3d
       0.025625592 0.02095962 -0.019445727 0.08774898
0002e0 c6 80 a3 bd cf 1b 28 bd 58 48 c8 3d 39 d9 89 bd
       -0.07983546 -0.041042145 0.097794235 -0.06730885
0002f0 a4 c0 9c 3d d2 3a 60 3d 83 db 7d 3c 60 7f 84 bd
       0.07653931 0.054743595 0.01549423 -0.06469607
000300 64 eb ab 3d c7 58 3b 3e e3 09 c6 3d b3 04 c1 bd
       0.083945066 0.18295585 0.096698545 -0.094247244
000310 49 ec bc bd 61 76 68 bd e7 5c c1 bd 99 f9 d5 3d
       -0.09224755 -0.05675352 -0.09441548 0.104479976
000320 12 c9 09 bd 27 89 04 3c 1f b2 09 bd ba 53 24 3e
       -0.03363902 0.00808934 -0.033617135 0.16047564
000330 4c bc ee bd fa 81 d0 bd 75 03 f9 3d 5c d0 63 bd
       -0.116570085 -0.10181041 0.121588625 -0.05561863
000340 bc d9 09 3e f5 32 6a 3d 58 22 fa bd c0 d3 26 3d
       0.13461965 0.057177503 -0.12213582 0.040729284
000350 d1 c6 e4 bd 53 82 55 3d d5 85 5a 3d 42 20 9a bd
       -0.11170734 0.05212624 0.05335029 -0.07525684
000360 0f 4a 6a 3d 0e fe e2 bc ee 55 11 3e 51 cb 1d 3d
       0.057199534 -0.027709033 0.14192936 0.038523976
000370 3a a3 d6 bc 31 b4 f8 3d d5 b0 cb 3d 6c d8 83 bd
       -0.02620088 0.12143744 0.099458374 -0.064377636
000380 2f 07 d2 3b 02 b8 bc 3c 35 0e 47 bd cb 0e d0 3d
       0.0064095478 0.02303696 -0.048597533 0.101590715
000390 90 79 54 3d 73 b2 66 bd a2 d3 28 bd ba b1 c7 bd
       0.051873744 -0.056322526 -0.041217454 -0.097506955
0003a0 3b 2e 0f 3e 7d 79 ee 3c 7b 16 50 bd c7 93 b5 3d
       0.1398248 0.029110665 -0.05080269 0.08866077
0003b0 64 e2 82 bd 52 1b 5a bd 0e a1 d5 bd d6 c5 c9 bc
       -0.06390837 -0.05324871 -0.10431109 -0.024630468
0003c0 ec ab cd 3b f8 49 02 bd 3c f3 55 bd 63 ec ce 3c
       0.006276598 -0.031808823 -0.05223392 0.025259202
0003d0 88 78 29 3e ce b7 7f 3d e1 5b cc 3d 5c 41 32 be
       0.16549885 0.06243115 0.09978462 -0.17407745
0003e0 5e 59 cb bc 0d 1c 95 3d 47 c5 fc bd 7c 03 74 bb
       -0.024822887 0.07280741 -0.12342315 -0.0037233522
0003f0 20 e9 3c bc 0a e9 f5 3d 15 15 9e 3d b7 53 14 bc
       -0.011530191 0.12007339 0.07718865 -0.009053162

convPool2.0.bias f4 [30]
000000 1d be 52 3b 3b d5 3a 3d da 4f 80 bd d5 0b ca bd
       0.0032156773 0.04561351 -0.062652305 -0.09865538
000010 35 34 83 3d e4 32 ae bc 8b b7 b7 3b d7 9f cc 3d
       0.06406442 -0.0212645 0.005606597 0.099914245
000020 0c da 06 3d 7c 28 2b bd b8 e2 b0 bd b3 5a df 3d
       0.03292279 -0.041786656 -0.08636993 0.109059714
000030 b7 71 c5 bb 5c b8 59 3d 6f 08 d6 bd ab c0 af 3d
       -0.0060255188 0.053154334 -0.10450827 0.085816704
000040 36 b6 bf bd dc 10 37 3d 82 98 82 3d 3f 0f a5 bd
       -0.09360926 0.044693813 0.06376745 -0.080595486
000050 c2 07 73 3d 4a 5f d2 3d 2a c2 c0 3d 07 9f f0 bb
       0.05933357 0.10272081 0.09412034 -0.0073431763
000060 5a 40 d1 bc 08 e8 ea ba e7 52 b2 3d 77 4f 09 bc
       -0.02554338 -0.0017921934 0.087072186 -0.008380762
000070 23 df 8d 3d b6 09 ed 3b
       0.069273256 0.0072338236

convPool2_.0.weight f4 [30, 30, 2]
000000 7b ea b2 bc 7e 80 f4 3c a8 61 7f 3d 8a 3e 98 3d
       -0.021840325 0.029846426 0.06234899 0.074338034
000010 74 e2 df bd d2 b9 0b be c1 eb ef bc 7f 0e a8 3d
       -0.109318644 -0.13645104 -0.02928722 0.0820589
000020 1c 82 8f bc f1 68 55 bd 63 1f a7 bd d0 30 03 bd
       -0.017518096 -0.052102033 -0.081602834 -0.032028973
000030 21 88 1b 3e ee be 15 3d 29 73 73 3d 9e c7 ac bd
       0.15188648 0.036559038 0.059435997 -0.084365115
000040 ce 2c ec bd bb b6 f7 3c 34 ee ec bd 4b 22 0e 3c
       -0.11531983 0.0302385 -0.11568871 0.008675168
000050 78 b1 cd 3d c9 83 88 bd e0 e7 be bd e9 f4 ae 3d
       0.10043615 -0.06665761 -0.093215704 0.08542807
000060 ca c8 3c bb b3 14 75 bd 80 00 2c be dd 46 77 3d
       -0.0028806203 -0.059834193 -0.16797066 0.060370315
000070 f9 c2 7c 3c f8 93 c7 bc 29 3b 17 3e 5b 2e d2 3d
       0.0154273445 -0.02436255 0.14768662 0.10262748
000080 f3 82 5c bd ed e5 60 3d f6 a1 a3 3c d5 91 6e 3d
       -0.05383582 0.054906774 0.01997469 0.058244545
000090 94 41 dc bd bd a9 20 3c 23 16 01 3d 99 32 1d bc
       -0.107546955 0.009806094 0.03151525 -0.009594583
0000a0 c1 d7 95 3c 36 cb 79 3d 95 a4 8a bd 55 1d 36 3d
       0.018291356 0.060984813 -0.06769673 0.044461567
0000b0 48 b4 19 3d 3f ca 9f 3d 5d 37 85 bd 73 74 3d 3d
       0.037525445 0.07802247 -0.065047 0.046253633
0000c0 2c 5c ef 3d fb ee ef 3b 66 8e 0a be df d2 77 3d
       0.11687502 0.00732219 -0.13530883 0.060503837
0000d0 23 07 f1 bd d1 f3 15 be b0 8c 53 bd 17 01 a4 3c
       -0.11768939 -0.1464379 -0.051647842 0.02002005
0000e0 17 c9 e3 3d f4 49 04 3e e6 2c e0 3c 0e 25 ce bd
       0.11122339 0.12918836 0.02736516 -0.10065661
0000f0 69 71 b7 3d 45 80 43 bd 79 d6 f5 bb 07 7e 03 3e
       0.08957178 -0.04772975 -0.007502374 0.12841044
000100 e5 17 79 bc 2c 4f a1 3d 8d ac 6d 3b e0 18 af bd
       -0.015203451 0.07876429 0.0036266178 -0.085496664
000110 a6 76 ac 3d 40 99 8f 3c e6 92 84 bd b2 5c 55 bd
       0.08421068 0.01752913 -0.06473331 -0.052090354
000120 b7 3e 11 bd a9 15 a5 3c cc 14 e8 bd c7 4a 31 bd
       -0.0354602 0.02015193 -0.11332092 -0.043284204
000130 87 1e 9c bd 35 ad 91 3d a1 f7 0b 3d ef 2f 4a 3c
       -0.0762301 0.07113115 0.034171704 0.01234053
000140 16 e4 94 bd 22 48 68 3d d9 75 39 bd 10 72 f7 bd
       -0.072700664 0.056709416 -0.045278404 -0.120823026
000150 41 63 ad bd 4b b0 1c 3c ec 4c c4 3d 61 76 e7 3d
       -0.08466197 0.009563516 0.09584984 0.11301876
000160 df b9 11 3e 4f 95 13 bc 98 de b3 3d 60 0f 5b 3d
       0.1423106 -0.009007766 0.08782691 0.05348146
000170 26 eb c2 bc d0 9e d3 bd 67 96 db bb 04 00 7f bc
       -0.023793768 -0.103330255 -0.006701279 -0.015563969
000180 39 a1 25 3e c8 83 c7 3d aa d7 87 3d 5e 34 ee 3d
       0.16174783 0.09741932 0.066329315 0.11631082
000190 b1 b9 11 bc 09 ab 4c 3c 7a 2b 70 bd 41 9a 32 bd
       -0.00889437 0.01249195 -0.058635212 -0.04360414
0001a0 3d 62 fb 3d b5 fa 00 3e 86 d8 1a 3e e3 72 49 3d
       0.12274597 0.12595637 0.1512166 0.04918183
0001b0 1c 67 0a be bf 1e 31 bd 24 da 3d bb 60 93 d4 3c
       -0.13515896 -0.043242212 -0.0028969133 0.02594918
0001c0 ea 48 ef 3c bc f9 cd 3a f1 52 11 be 3d 7d 29 3d
       0.029209573 0.0015714685 -0.14191796 0.041379202
0001d0 88 ee c3 3d 42 97 93 bd 19 4e 0e 3e a4 99 03 3e
       0.095669806 -0.072065845 0.1389698 0.12851578
0001e0 a7 a4 f2 3c 0d 3d bc 3c ca d7 02 3e d8 fb 17 bd
       0.029619528 0.02297833 0.1277763 -0.03710541
0001f0 16 0c 01 3e b7 e6 a3 bd 2c 20 1c be 1d 5a 64 3d
       0.12602267 -0.0800299 -0.15246648 0.05575
000200 7f a0 0d be ae da b6 3d de a4 05 3e 2e f0 50 bd
       -0.13830756 0.089284286 0.13051173 -0.051010303
000210 76 e2 b0 3d f8 ba 2c bd 30 d3 6a bb 4f 78 bd 3c
       0.08636944 -0.042170495 -0.0035831444 0.023128657
000220 a0 0f 6a bb b5 b3 24 bd 9c dc 69 3c 07 2d ef 3d
       -0.003571488 -0.040210444 0.014273789 0.1167851
000230 6a 97 02 be e6 0a 04 be d0 f5 84 3d 62 e4 2a 3c
       -0.12753072 -0.12894782 0.064921975 0.010430427
000240 13 5c 2a be 74 82 62 bd e6 81 29 bd 24 cc 05 3e
       -0.16636686 -0.05530019 -0.041383646 0.13066155
000250 cb f2 1a be 7b 83 c0 bd 61 d8 a5 3d 58 19 e5 3d
       -0.1513168 -0.09400078 0.080979116 0.111864746
000260 eb 6d 45 bd c0 55 34 3c 66 9b 13 bd 9d 26 34 3c
       -0.04820053 0.0110067725 -0.03603687 0.010995534
000270 a3 78 c3 bd b0 3c 08 be 9a 6d 97 bd 7f 25 8a bc
       -0.09544494 -0.133044 -0.07393952 -0.016863583
000280 3e fa 05 3e f3 e6 68 3d f4 e4 b2 3c 36 a6 dc bd
       0.13083741 0.056860875 0.021837689 -0.1077389
000290 a6 f9 81 3d ee d2 c9 3d 45 82 8a 3d 9f 27 be bd
       0.06346445 0.09854685 0.06763128 -0.09284901
0002a0 fb 57 f5 bd 48 4e f0 3d 67 a0 a3 3d 45 d2 c6 3d
       -0.119796716 0.11733681 0.07989579 0.097080745
0002b0 a4 70 d1 bd fb 95 1e bd 49 fb a3 3d 42 d9 01 3e
       -0.102265626 -0.03871725 0.08006913 0.12680534
0002c0 55 0a ea 3c 30 f0 b0 bc 84 cd c9 bd 86 ea fa bc
       0.02856938 -0.021598905 -0.09853652 -0.030629408
0002d0 7f 3a fe 3b 4f 63 cd bd 53 ce 94 bc 83 8e 4c bc
       0.007758438 -0.10028707 -0.01816479 -0.012485149
0002e0 58 c5 8e 3d 7e 2a e9 3c 08 f8 86 3c c6 13 d5 3d
       0.06971234 0.028462645 0.016475692 0.10404162
0002f0 bc 00 b1 bc 6c 35 1e be 59 a1 82 3d da 89 02 be
       -0.021606795 -0.15450066 0.06378431 -0.12747899
000300 47 53 6b 3b 2d 7a 11 3e b4 a2 e0 3d 75 26 81 bc
       0.0035907791 0.14206763 0.10968533 -0.015765408
000310 bc 25 26 bd 47 f0 1a bd ca 56 44 3d c0 6e 72 3d
       -0.04056333 -0.037826803 0.04793433 0.05918765
000320 5e f7 05 3e 7f 63 9d 3c 68 ca 91 3d 43 21 bd 3d
       0.13082644 0.019212482 0.07118684 0.0923486
000330 37 87 21 be 5f 6e a4 3d 4d 2e 12 bd 35 4e 76 bd
       -0.15774237 0.08028864 -0.035688687 -0.060133178
000340 aa 67 60 bc 4b 1b 39 bc 02 d4 f1 bd 5f fb e0 3d
       -0.01369659 -0.011298011 -0.118080154 0.10985445
000350 7a 8b 44 be 1e 30 be 3d 82 da c7 3c 6a 43 35 bd
       -0.19193831 0.092865214 0.024396185 -0.044253744
000360 c7 3f 42 be 2c c7 f6 3c 18 15 ed bd 6a 9e a5 3d
       -0.18969642 0.03012427 -0.11576289 0.08086856
000370 f0 8f 1a 3d 12 72 06 3e d4 8e f0 3d 28 97 af bc
       0.037734926 0.13129452 0.11745992 -0.021434382
000380 d8 9f 1f be f6 80 96 3c fa ae ef bd 35 f4 08 bb
       -0.1558832 0.01837204 -0.11703296 -0.0020897512
000390 c9 75 c1 3d d2 56 6f 3d cc 1c 97 3d 0d 0c 1e 3d
       0.09446294 0.058432408 0.073785394 0.03858571
0003a0 8c 6c 81 3d 42 73 ac bd 60 24 32 bd 10 4b 7d 3c
       0.06319532 -0.08420421 -0.04349172 0.015459791
0003b0 0f 1c 18 be 38 37 77 3d b8 14 e6 bc d0 fc 08 bc
       -0.14854454 0.060355395 -0.028086051 -0.008361056
0003c0 f7 b7 c9 3d 5b 0d 02 3e cf 5a 08 be f1 5d 7f 3d
       0.09849542 0.12700407 -0.1331589 0.06234545
0003d0 9f ee b8 bd 91 f0 70 bd 44 86 07 be 85 25 2b 3d
       -0.09029888 -0.058823172 -0.13234812 0.04178383
0003e0 9a e0 97 bd cd 5c 64 3d d3 d3 ae bd ef 51 cd 3c
       -0.07415886 0.055752564 -0.08536496 0.025063483
0003f0 c0 64 27 bd 08 27 97 3d ec c6 8a bd a3 0f 25 3d
       -0.040867567 0.073804915 -0.067762226 0.040298115

convPool2_.0.bias f4 [30]
000000 ce 4d 39 3d 62 39 b2 bd ce 67 dc bd 19 79 13 bd
       0.045240216 -0.08702351 -0.10761987 -0.03600416
000010 04 6d 23 3d a6 7c 3f 3c 61 8b fc 3c 39 8a 03 bd
       0.039898887 0.011687433 0.03082818 -0.03211424
000020 42 4c b3 3d 3a 0d 86 3d 6a 0e dd 3c cc b5 80 3d
       0.087547794 0.065454915 0.026984412 0.06284675
000030 56 63 9d 3b dd c9 ca 3d 61 5c 86 bd 95 a4 01 3e
       0.0048031015 0.099017836 -0.06560589 0.1266044
000040 40 f7 ca 3c ce ef 46 bc d6 e1 a1 3d 62 6f 32 bc
       0.024776101 -0.012142135 0.07904403 -0.010890814
000050 31 bc 35 bd bb 2e 45 bc 42 11 df bd b9 fb 57 bd
       -0.044368926 -0.012035067 -0.108919635 -0.052730296
000060 a8 be 91 bc ac ca 91 bd 16 09 4e bc 72 84 c7 bd
       -0.017791107 -0.07118735 -0.012575408 -0.09742059
000070 54 7a 6e 3d ab 26 f7 bd
       0.05822213 -0.12067922

BiLstm.weight_ih_l0 f4 [120, 30]
000000 3a 32 2a 3d 8b 77 94 bd c3 ea 91 3d 20 54 10 3e
       0.041551806 -0.072493635 0.07124855 0.14094591
000010 a0 f5 41 3e 17 6e 1c be ec ba 16 be 2c 1d 24 3d
       0.18941355 -0.15276371 -0.14719743 0.040066883
000020 cc c6 ea bd 5f 1a 35 3c 23 1d 96 3d 80 79 90 3d
       -0.11463699 0.011053651 0.07329776 0.07054424
000030 23 31 15 be 02 83 f6 3d 2a 06 16 be 96 47 52 3e
       -0.14569525 0.120367065 -0.14650789 0.2053512
000040 36 c4 d7 bc 18 5a ab 3d f6 1a 42 3e 85 21 32 3e
       -0.026338678 0.083667934 0.18955597 0.17395599
000050 38 75 6d 3d a7 5b ab bc ce 8b ec bd 7e e3 7b 3d
       0.057973117 -0.020917727 -0.11550103 0.06149625
000060 e6 f6 1a be 27 11 83 3d 7d d2 4d bc 1a c2 13 be
       -0.15133247 0.06399756 -0.012562391 -0.14429513
000070 55 cb 46 3e fd 4e 26 be f4 0c d7 3d c3 92 b0 bd
       0.19413503 -0.16241069 0.105005175 -0.086217426
000080 c9 77 23 be 64 f6 d0 3d 9e c0 e6 3d 59 d8 19 3a
       -0.15963663 0.10203245 0.112672076 0.0005868725
000090 8b 52 fe bd 13 a8 17 3e cb 8d 1f 3e 26 0d 85 3d
       -0.124180876 0.14810209 0.15581433 0.064966485
0000a0 3a 6e 1a bd b3 b1 9f bd 82 0c 2d be 7e 05 dd 3d
       -0.037702776 -0.07797565 -0.16899303 0.10792063
0000b0 4b 80 16 3e 3a 20 7e 3d 70 93 ab bd b6 3b 57 3e
       0.14697377 0.062042452 -0.08377731 0.21018872
0000c0 bb 79 2d 3e cf 48 ba bd 72 dd ee 3d 03 a5 6e be
       0.16940968 -0.090959184 0.11663331 -0.23305134
0000d0 5c 61 e7 bd c5 32 32 3e 1b c1 6b 3d 1f c1 cf 3b
       -0.11297867 0.1740218 0.057557207 0.0063401605
0000e0 fc f0 cc 3d 3f d2 05 bd 75 15 ca bd f7 43 4b be
       0.100069016 -0.03267121 -0.09867374 -0.19850145
0000f0 8d 5c c6 bd a4 17 59 3e b1 f0 0c bd 7b 1d 51 3e
       -0.096856214 0.21200424 -0.03440923 0.20421402
000100 a4 96 be 3c 88 c2 62 3d 94 f7 26 be f8 c1 ad bd
       0.02326519 0.0553613 -0.16305381 -0.08484262
000110 c6 84 47 3e 4c c2 e3 bd 14 7a 5d 3e 7f 61 00 be
       0.19484243 -0.111210436 0.216286 -0.12537192
000120 2e f3 c3 bc 8d a2 0b 3e 43 f5 d6 3a d2 64 2c be
       -0.023919668 0.13636227 0.0016399998 -0.16835335
000130 81 d7 ab 3d 96 f0 1f 3e 57 87 0f be 92 a4 23 bd
       0.083907135 0.1561912 -0.14016472 -0.03995187
000140 9d d6 2d be 1c ed 9d 3d 9d 09 a6 bc d5 9b 91 bd
       -0.169764 0.07711241 -0.020268256 -0.07109801
000150 df 2f 40 bd c3 4a 53 bd 2b fd af 3d 53 2d b4 bc
       -0.046920653 -0.05158497 0.0859321 -0.021994269
000160 a8 a0 2a 3b 95 a0 b6 bd 00 f5 c6 bd 48 b0 17 be
       0.00260357 -0.08917347 -0.09714699 -0.1481334
000170 c5 05 0e 3d 6a 49 d1 3b 63 27 ad bc 1e 27 e0 3d
       0.03467347 0.0063869255 -0.021136945 0.10944961
000180 ab 44 38 3e bd 78 4f bc bd 1d ea bb e2 e7 ad bd
       0.17994945 -0.012663064 -0.0071446584 -0.08491494
000190 81 61 32 3e 31 24 98 bd 4b 59 1f 3e c6 f1 09 be
       0.17420007 -0.07428778 0.15561406 -0.13471135
0001a0 d6 45 08 bd a5 27 20 3e 62 5a 80 3d bb 8e 84 bd
       -0.033269726 0.15640123 0.06267239 -0.06472536
0001b0 e4 27 54 3e 5a d6 af 3d f5 1a 37 3d 44 b5 91 3d
       0.20718342 0.08585806 0.044703443 0.07114652
0001c0 ad 45 84 3d 69 1a e3 3d 40 06 9b 3d cb af 58 3d
       0.06458602 0.11089022 0.075695515 0.052902024
0001d0 d3 93 30 bd b8 42 ae 3d ce 28 82 3d 8b 4f 55 3e
       -0.043109726 0.08508819 0.06355439 0.20831124
0001e0 ac 6f 25 3e 7f 8c 20 3d 59 77 34 3d c5 11 03 3e
       0.1615588 0.039196488 0.04405913 0.12799747
0001f0 d3 a2 16 3e 39 97 55 3e fa 7d 4b 3d f6 de 31 3e
       0.1471055 0.20858468 0.049680687 0.17370209
000200 45 51 90 bd d7 dd 5a 3e 6a bd 61 3e e3 67 6d bd
       -0.07046751 0.21373688 0.22044912 -0.057960402
000210 a9 0c 3d 3d dc dd f6 bd 78 13 0f bd 1e 90 04 3d
       0.04615465 -0.12054035 -0.034930676 0.032364003
000220 d7 84 8b 3d a7 c6 05 bd 42 1f 11 3e 74 c1 52 bd
       0.068124466 -0.032660153 0.1417208 -0.051454023
000230 2a 32 8f 3e 06 eb b7 3d 4b bd 3f bd dc 3b 27 3c
       0.2796796 0.08980374 -0.046811383 0.010207143
000240 54 72 9e 3e 6f 23 b5 3d 83 19 1a 3e c7 a7 36 3e
       0.309466 0.08844649 0.15048794 0.1783744
000250 65 24 0b 3e e6 cd 1e bd 8e 8c e3 bd 52 bc 84 3d
       0.13588102 -0.03877058 -0.11110793 0.06481232
000260 3c 4a 3d 3e a8 58 9b bd f3 59 75 bd 85 21 c8 bd
       0.1848535 -0.07585269 -0.059900235 -0.09772018
000270 2b d8 00 3e b6 df 5a 3e 92 b1 0e be 86 11 48 3d
       0.12582462 0.21374401 -0.13934925 0.048844837
000280 ed f1 39 3d c4 ee 13 3d 26 a8 1a 3e d4 62 91 3d
       0.045396734 0.036116377 0.15103206 0.07098928
000290 ef 85 5d 3d 23 15 dc bc f9 6d c5 bc c4 84 d7 3d
       0.054082807 -0.026865548 -0.02410029 0.1052337
0002a0 73 54 10 3e 78 fe a4 3d 0a 35 8e ba 4a bc 3f bd
       0.14094715 0.080563486 -0.0010849547 -0.046810426
0002b0 1c 9a e0 3d 52 e5 68 bd 65 7c 04 3e 5b 19 d6 3c
       0.10966894 -0.056859322 0.12938078 0.026135137
0002c0 24 82 31 3e 6c d2 a2 3c 20 48 b3 3c 71 99 2e 3e
       0.17334801 0.019875728 0.021884978 0.17050721
0002d0 26 32 d5 3d c8 4b 00 3e 29 fb 12 3e 67 a7 e0 bd
       0.10409956 0.12528908 0.14353622 -0.109694295
0002e0 6f 00 dd 3d fa e1 71 3c 32 e8 a9 bd 2d f1 3a bc
       0.10791098 0.01476335 -0.08296241 -0.01141004
0002f0 42 c4 27 3e 30 9c 7e 3b dc 27 fa bc 61 34 01 be
       0.1638346 0.003885042 -0.030536585 -0.12617637
000300 0e 4e b9 bb 70 d4 15 3e 4a aa 04 be da 79 ab 3d
       -0.005655057 0.1463182 -0.12955585 0.08372851
000310 67 59 af bd d8 36 25 be d3 8b ef 3c be d0 94 3c
       -0.08561974 -0.16134202 0.029241478 0.018165942
000320 4f 9f 18 be d6 38 1a bd 7d c2 c8 bd 33 b9 2d bd
       -0.14904521 -0.03765186 -0.09802721 -0.042412948
000330 3d 1b 60 bd a6 30 3d 3e 5a b2 54 3d 4e 0c 83 bd
       -0.054713476 0.18475589 0.0519279 -0.06398831
000340 1a d8 2d 3c 79 54 0a 3d 83 de d9 3d 49 c6 e1 bc
       0.010610605 0.033771966 0.10638144 -0.02756037
000350 bb 2c df 3d ce 54 8b bc ad c4 c3 bd 55 a8 c5 bd
       0.108972035 -0.017008211 -0.09558997 -0.096512474
000360 60 ad e9 bd c8 4e 9e 3d c3 e8 07 3c f8 38 8d 3d
       -0.11410022 0.0772987 0.008295241 0.068956316
000370 7f 73 ef 3d 99 5e 3c bd e5 46 98 bd a5 85 05 be
       0.11691951 -0.045988653 -0.07435397 -0.13039263
000380 49 ee 55 3d ef b4 38 3e b5 f3 14 3e 50 49 13 3d
       0.0522292 0.1803777 0.14546092 0.035958588
000390 da 59 cf 3d d1 65 cf bc e3 25 ca bd e0 e6 0d 3e
       0.1012456 -0.025317105 -0.098705076 0.13857603
0003a0 77 aa a5 bc cc 6a b8 bd 64 10 e4 bc 57 b5 c8 bc
       -0.020222886 -0.09004745 -0.027839847 -0.024500532
0003b0 f9 c2 02 3e 05 56 c7 bd 0a be b1 bd b3 e4 57 be
       0.12769689 -0.09733204 -0.08678825 -0.21083336
0003c0 13 1c 17 be 77 2a 6a 3e 59 ba 5b 3e a2 7e 35 bd
       -0.14756803 0.22867762 0.21457805 -0.04431022
0003d0 b8 68 43 3e 2d f3 3b 3d 69 84 c9 3d f3 08 3a bd
       0.19082916 0.045886207 0.09839708 -0.04541869
0003e0 53 01 b0 3d 35 b5 b8 3d b1 e2 5e 3e f1 6f 10 be
       0.085940026 0.090189375 0.21766163 -0.14105202
0003f0 bd 3e 7f 3e 34 32 73 bc c6 8f b4 bd 73 09 19 3e
       0.24926277 -0.014843512 -0.08816485 0.14945011
